…
2018-09-07 03:46:12.952363: I tensorflow/core/common_runtime/gpu/gpu_device.cc:984] 0:   N 
2018-09-07 03:46:12.965804: I tensorflow/core/common_runtime/gpu/gpu_device.cc:1097] Created TensorFlow device (/job:localhost/replica:0/task:0/device:GPU:0 with 15048 MB memory) -> physical GPU (device: 0, name: Tesla P100-PCIE-16GB, pci bus id: 0000:00:04.0, compute capability: 6.0)
_________________________________________________________________
Layer (type)                 Output Shape              Param #   
=================================================================
permute_1 (Permute)          (None, 256, 256, 3)       0         
_________________________________________________________________
reshape_1 (Reshape)          (None, 256, 768)          0         
_________________________________________________________________
lstm_1 (LSTM)                (None, 256, 150)          551400    
_________________________________________________________________
lstm_2 (LSTM)                (None, 256, 150)          180600    
_________________________________________________________________
dropout_1 (Dropout)          (None, 256, 150)          0         
_________________________________________________________________
time_distributed_1 (TimeDist (None, 256, 100)          15100     
_________________________________________________________________
flatten_1 (Flatten)          (None, 25600)             0         
_________________________________________________________________
dense_2 (Dense)              (None, 4)                 102404    
=================================================================
Total params: 849,504
Trainable params: 849,504
Non-trainable params: 0
_________________________________________________________________
Found 40000 images belonging to 4 classes.
Found 10000 images belonging to 4 classes.
Epoch 1/15

  1/800 [..............................] - ETA: 1:59:03 - loss: 1.4632 - acc: 0.1400
  2/800 [..............................] - ETA: 1:07:37 - loss: 1.4087 - acc: 0.2200
…
